03_Running_Car_Code/model.tflite (tflite, 268704 bytes, 9 tensors)

sequential/dense_3/MatMul i1 [1, 10] scale=0.0050173565 zero_point=0
00000000: e988 81d9 22ae e109 ef47
-0.1153992 -0.6020828 -0.6372043 -0.19567691 0.17059012 -0.41142324 -0.15553805 0.045156207
-0.08529506 0.35623232

sequential/dense_2/MatMul i1 [10, 50] scale=0.0024759697 zero_point=0
00000000: a891 377c 2dd9 0302 64f4 9b3b ef2d b96a
00000010: 06c9 6de7 a40b bf1c 50bd 5024 c475 e6c7
00000020: 3953 4599 b070 49fb 89f5 df2d 2e95 e898
00000030: 5052 5fed bd27 886e 0064 3175 080f d2da
00000040: 6745 3373 6eb8 1c24 96cc ff19 91ab 8665
00000050: 98d1 2a14 4333 2439 6f89 4b5f 39bc a82c
00000060: 43c3 fef1 0054 38ac cbe4 9e76 69f0 a126
00000070: f4d6 667c 93ed b5d6 8439 444c 2dfd f681
00000080: 466a 501e 62f8 f8e4 9840 24c7 2a31 1918
00000090: 9fb3 577c e583 20d6 e112 0365 5ed4 a533
000000a0: 5e92 ad9f 3541 185d 3fcc 2dc1 93e8 8a22
000000b0: 0eb1 65d6 e819 3fd8 7e6b 83ce 9c20 4b02
000000c0: 08b8 b59c dcff 5584 e419 ce64 185a 9d9a
000000d0: a699 0b29 4eb7 f1c8 ca4b 6a57 5b5f 74ac
000000e0: 0f5d 589c 8e64 abd1 b2ff 4bb1 6c4f 815a
000000f0: 0530 2ae7 ddca 4302 19a8 6c66 8e54 5286
-0.21788533 -0.27483264 0.13617833 0.30702025 0.111418635 -0.09656282 0.0074279094 0.0049519395
0.24759698 -0.029711638 -0.25007296 0.14608221 -0.042091485 0.111418635 -0.17579386 0.26245278
0.014855819 -0.13617833 0.2698807 -0.061899245 -0.22778921 0.027235666 -0.16093804 0.06932715
0.19807757 -0.16588998 0.19807757 0.08913491 -0.14855818 0.28968847 -0.064375214 -0.14113027
0.14113027 0.20550549 0.17084192 -0.25502488 -0.19807757 0.2773086 0.1807458 -0.012379848
-0.2946404 -0.027235666 -0.081707 0.111418635 0.113894604 -0.26492876 -0.059423275 -0.25750086
0.19807757 0.20302951 0.23521712 -0.047043424 -0.16588998 0.09656282 -0.29711637 0.27235666
0.0 0.24759698 0.12132252 0.28968847 0.019807758 0.037139546 -0.113894604 -0.09408685
0.25502488 0.17084192 0.12627445 0.2847365 0.27235666 -0.17826982 0.06932715 0.08913491
-0.26245278 -0.12875043 -0.0024759697 0.061899245 -0.27483264 -0.21045743 -0.3020683 0.25007296
-0.25750086 -0.11637057 0.103990726 0.049519394 0.16588998 0.12627445 0.08913491 0.14113027
0.27483264 -0.2946404 0.18569773 0.23521712 0.14113027 -0.16836594 -0.21788533 0.108942665
0.16588998 -0.15103415 -0.0049519395 -0.037139546 0.0 0.20798145 0.1386543 -0.20798145
-0.13122639 -0.06932715 -0.24264504 0.29216442 0.25997683 -0.039615516 -0.23521712 0.09408685
-0.029711638 -0.103990726 0.2525489 0.30702025 -0.2698807 -0.047043424 -0.18569773 -0.103990726
-0.30702025 0.14113027 0.16836594 0.1881737 0.111418635 -0.0074279094 -0.024759697 -0.31444815
0.17331788 0.26245278 0.19807757 0.07427909 0.24264504 -0.019807758 -0.019807758 -0.06932715
-0.25750086 0.15846206 0.08913491 -0.14113027 0.103990726 0.12132252 0.061899245 0.059423275
-0.24016906 -0.19064967 0.21540937 0.30702025 -0.066851184 -0.30949622 0.07923103 -0.103990726
-0.07675506 0.044567455 0.0074279094 0.25007296 0.23274115 -0.108942665 -0.22531325 0.12627445
0.23274115 -0.27235666 -0.20550549 -0.24016906 0.13122639 0.16093804 0.059423275 0.23026519
0.15598609 -0.12875043 0.111418635 -0.15598609 -0.2698807 -0.059423275 -0.29216442 0.08418297
0.034663577 -0.19560161 0.25007296 -0.103990726 -0.059423275 0.061899245 0.15598609 -0.09903879
0.31197217 0.26492876 -0.30949622 -0.12379849 -0.24759698 0.07923103 0.18569773 0.0049519395
0.019807758 -0.17826982 -0.18569773 -0.24759698 -0.08913491 -0.0024759697 0.21045743 -0.30702025
-0.06932715 0.061899245 -0.12379849 0.24759698 0.059423275 0.22283727 -0.245121 -0.2525489
-0.22283727 -0.25502488 0.027235666 0.10151476 0.19312564 -0.1807458 -0.037139546 -0.1386543
-0.13370237 0.18569773 0.26245278 0.21540937 0.22531325 0.23521712 0.2872125 -0.20798145
0.037139546 0.23026519 0.21788533 -0.24759698 -0.28226054 0.24759698 -0.21045743 -0.11637057
-0.19312564 -0.0024759697 0.18569773 -0.19560161 0.26740474 0.19560161 -0.31444815 0.22283727
0.012379848 0.11884655 0.103990726 -0.061899245 -0.08665894 -0.13370237 0.16588998 0.0049519395
0.061899245 -0.21788533 0.26740474 0.2525489 -0.28226054 0.20798145 0.20302951 -0.3020683

sequential/dense_1/MatMul i1 [50, 100] scale=0.0016860559 zero_point=0
00000000: 9d9d 6bfd bed1 6356 5b26 c829 5df1 209c
00000010: c127 1953 d210 d776 ea3c 57c8 02f5 23df
00000020: d459 9ce5 eac5 f613 70d5 b58b 5973 893e
00000030: 2521 5e69 3c46 0522 bad1 14b3 6294 f6f6
00000040: 9f30 f33d 3f0f 20cb 8d35 a067 fff8 ca94
00000050: a522 4341 0260 33b0 64cf c42c 36b7 04eb
00000060: 28fc 3212 a9e6 be8a bc74 a0e1 4005 05e5
00000070: 90fa 4d33 a4e9 16cf 1e60 9d48 b611 d203
00000080: 5b29 d6a0 61c7 e518 a49b fe5e 53be dfd6
00000090: 14bc 8bab d81b a490 a15a a1df 4549 509f
000000a0: 173c b03d 406f bd97 c0d7 d192 0c22 225b
000000b0: e023 6a24 14eb 8dbd 4593 4d6b baba d011
000000c0: f0cd 00b3 00ed b6cf 57ee 2652 5eed d299
000000d0: 166e b315 cf08 ea43 a0ec c06e 9bc3 f750
000000e0: 61c3 2f8a 39e0 d16f e7ba ebf8 1c12 aff3
000000f0: 480b c144 bce9 95c3 afc3 2e47 b1e3 eb8e
-0.16691953 -0.16691953 0.18040799 -0.0050581675 -0.11127969 -0.07924463 0.16691953 0.14500082
0.15343109 0.06407013 -0.09441913 0.06912829 0.1568032 -0.02529084 0.05395379 -0.1686056
-0.10622152 0.06575618 0.0421514 0.13994265 -0.07755857 0.026976895 -0.06912829 0.1989546
-0.03709323 0.10116336 0.14668687 -0.09441913 0.0033721118 -0.018546615 0.05901196 -0.055639844
-0.07418646 0.15005897 -0.1686056 -0.04552351 -0.03709323 -0.0994773 -0.01686056 0.032035064
0.18883826 -0.07250041 -0.12645419 -0.19726855 0.15005897 0.19389643 -0.20064065 0.10453547
0.06238407 0.055639844 0.15848926 0.17703587 0.10116336 0.11802392 0.00843028 0.0573259
-0.11802392 -0.07924463 0.03372112 -0.1298263 0.16523348 -0.18209404 -0.01686056 -0.01686056
-0.16354743 0.08093068 -0.021918727 0.10284941 0.10622152 0.02529084 0.05395379 -0.08936096
-0.19389643 0.08936096 -0.16186136 0.17366377 -0.0016860559 -0.013488447 -0.09104702 -0.18209404
-0.15343109 0.0573259 0.11296575 0.10959364 0.0033721118 0.16186136 0.08598885 -0.13488448
0.1686056 -0.08261674 -0.10116336 0.07418646 0.09104702 -0.12308208 0.0067442236 -0.035407174
0.06744224 -0.0067442236 0.0843028 0.030349007 -0.14668687 -0.043837454 -0.11127969 -0.1989546
-0.1146518 0.19558248 -0.16186136 -0.052267734 0.10790758 0.00843028 0.00843028 -0.04552351
-0.18883826 -0.010116335 0.1298263 0.08598885 -0.15511714 -0.038779285 0.03709323 -0.08261674
0.05058168 0.16186136 -0.16691953 0.12139603 -0.12476814 0.02866295 -0.07755857 0.0050581675
0.15343109 0.06912829 -0.07081435 -0.16186136 0.16354743 -0.09610519 -0.04552351 0.04046534
-0.15511714 -0.17029165 -0.0033721118 0.15848926 0.13994265 -0.11127969 -0.055639844 -0.07081435
0.03372112 -0.1146518 -0.19726855 -0.14331475 -0.06744224 0.04552351 -0.15511714 -0.18883826
-0.16017531 0.15174504 -0.16017531 -0.055639844 0.11633786 0.12308208 0.13488448 -0.16354743
0.038779285 0.10116336 -0.13488448 0.10284941 0.10790758 0.1871522 -0.11296575 -0.17703587
-0.10790758 -0.06912829 -0.07924463 -0.18546616 0.02023267 0.0573259 0.0573259 0.15343109
-0.05395379 0.05901196 0.17872192 0.060698014 0.03372112 -0.035407174 -0.19389643 -0.11296575
0.11633786 -0.18378009 0.1298263 0.18040799 -0.11802392 -0.11802392 -0.08093068 0.02866295
-0.026976895 -0.08598885 0.0 -0.1298263 0.0 -0.032035064 -0.12476814 -0.08261674
0.14668687 -0.030349007 0.06407013 0.13825658 0.15848926 -0.032035064 -0.07755857 -0.17366377
0.03709323 0.18546616 -0.1298263 0.035407174 -0.08261674 0.013488447 -0.03709323 0.11296575
-0.16186136 -0.03372112 -0.10790758 0.18546616 -0.17029165 -0.10284941 -0.015174503 0.13488448
0.16354743 -0.10284941 0.07924463 -0.1989546 0.09610519 -0.05395379 -0.07924463 0.1871522
-0.0421514 -0.11802392 -0.035407174 -0.013488447 0.047209565 0.030349007 -0.13657053 -0.021918727
0.12139603 0.018546615 -0.10622152 0.1146518 -0.1146518 -0.038779285 -0.18040799 -0.10284941
-0.13657053 -0.10284941 0.07755857 0.11970997 -0.13319841 -0.04889562 -0.035407174 -0.19221038

sequential/dense/MatMul i1 [100, 1152] scale=0.0007756923 zero_point=0
00000000: c3b3 eabe e548 ed4f 3fe2 0e1a e42c 0ddc
00000010: 5143 d802 ed30 c73d 3c2e 1fb7 4cc9 c73d
00000020: f7f3 1d51 5348 4bb7 17e6 3547 a8a7 4745
00000030: e7c0 5547 ca22 50a7 fe5c d52b 092f 47b0
00000040: ef38 2c24 abee d446 4fc7 3bfb b51a d1ca
00000050: 19fb a8db 3a06 4ff4 260f e60d 500c f122
00000060: 54de 28e8 2baa 32b0 f7fd dfaa 4e00 f9e8
00000070: cdf8 e908 070e db1e 06dd ce25 4a58 3619
00000080: 451e 1307 e838 11dc ebc5 d251 dcf1 fdc6
00000090: 281d ad4e 51b7 b2ca f3f9 160d ba1c 0b45
000000a0: b0b4 0abc cb3b dad3 55d0 4424 a533 54db
000000b0: aac2 c2e0 340e 2511 fce4 b02f 1cf9 feb0
000000c0: 23c5 0e4b e3c1 4413 1945 c907 df07 b4d8
000000d0: cc49 2336 3819 2e2b f44c d9dc b5b4 3a01
000000e0: 20d3 aff7 4a25 0b5c 1326 d4d4 21ef 3532
000000f0: dac2 cdf9 f5b8 13cf 30d1 3b28 ac07 5243
-0.04731723 -0.059728306 -0.01706523 -0.051195692 -0.020943692 0.055849843 -0.014738154 0.06127969
0.048868615 -0.023270769 0.0108596925 0.020167999 -0.021719385 0.03413046 0.0100839995 -0.027924921
0.062831074 0.051971383 -0.031027691 0.0015513846 -0.014738154 0.03723323 -0.04421446 0.04731723
0.046541538 0.035681844 0.02404646 -0.056625538 0.058952615 -0.042663075 -0.04421446 0.04731723
-0.0069812303 -0.0100839995 0.022495076 0.062831074 0.064382456 0.055849843 0.05817692 -0.056625538
0.017840922 -0.020167999 0.041111693 0.05507415 -0.06826092 -0.06903661 0.05507415 0.05352277
-0.019392308 -0.049644306 0.065933846 0.05507415 -0.041887384 0.026373537 0.062055383 -0.06903661
-0.0015513846 0.07136369 -0.033354767 0.033354767 0.0069812303 0.03645754 0.05507415 -0.062055383
-0.013186769 0.04343877 0.03413046 0.027924921 -0.065933846 -0.013962461 -0.03413046 0.05429846
0.06127969 -0.04421446 0.045765843 -0.0038784614 -0.05817692 0.020167999 -0.03645754 -0.041887384
0.019392308 -0.0038784614 -0.06826092 -0.028700614 0.044990152 0.0046541537 0.06127969 -0.009308307
0.029476307 0.0116353845 -0.020167999 0.0100839995 0.062055383 0.009308307 -0.0116353845 0.026373537
0.06515815 -0.026373537 0.031027691 -0.018616615 0.033354767 -0.06670953 0.038784616 -0.062055383
-0.0069812303 -0.0023270769 -0.025597846 -0.06670953 0.060503997 0.0 -0.0054298462 -0.018616615
-0.039560307 -0.0062055383 -0.017840922 0.0062055383 0.0054298462 0.0108596925 -0.028700614 0.023270769
0.0046541537 -0.02714923 -0.038784616 0.028700614 0.05740123 0.06826092 0.041887384 0.019392308
0.05352277 0.023270769 0.014738154 0.0054298462 -0.018616615 0.04343877 0.013186769 -0.027924921
-0.016289538 -0.045765843 -0.035681844 0.062831074 -0.027924921 -0.0116353845 -0.0023270769 -0.044990152
0.031027691 0.022495076 -0.064382456 0.060503997 0.062831074 -0.056625538 -0.060503997 -0.041887384
-0.0100839995 -0.0054298462 0.01706523 0.0100839995 -0.05429846 0.021719385 0.008532615 0.05352277
-0.062055383 -0.058952615 0.007756923 -0.052747075 -0.041111693 0.045765843 -0.029476307 -0.034906153
0.065933846 -0.03723323 0.052747075 0.027924921 -0.070588 0.039560307 0.06515815 -0.028700614
-0.06670953 -0.04809292 -0.04809292 -0.024822153 0.040335998 0.0108596925 0.028700614 0.013186769
-0.0031027691 -0.021719385 -0.062055383 0.03645754 0.021719385 -0.0054298462 -0.0015513846 -0.062055383
0.02714923 -0.045765843 0.0108596925 0.05817692 -0.022495076 -0.048868615 0.052747075 0.014738154
0.019392308 0.05352277 -0.042663075 0.0054298462 -0.025597846 0.0054298462 -0.058952615 -0.031027691
-0.040335998 0.056625538 0.02714923 0.041887384 0.04343877 0.019392308 0.035681844 0.033354767
-0.009308307 0.058952615 -0.030251998 -0.027924921 -0.05817692 -0.058952615 0.044990152 0.0007756923
0.024822153 -0.034906153 -0.062831074 -0.0069812303 0.05740123 0.028700614 0.008532615 0.07136369
0.014738154 0.029476307 -0.03413046 -0.03413046 0.025597846 -0.013186769 0.041111693 0.038784616
-0.029476307 -0.04809292 -0.039560307 -0.0054298462 -0.008532615 -0.055849843 0.014738154 -0.03800892
0.03723323 -0.03645754 0.045765843 0.031027691 -0.06515815 0.0054298462 0.06360677 0.051971383

sequential/conv2d_4/Conv2D i1 [64, 3, 3, 64]
00000000: eda0 4dc5 b1c8 63a5 5a15 4c35 39d9 cfd3
00000010: e718 439b ab4f 2af1 299a 2a60 3045 2022
00000020: d24c 49f2 0806 57c1 25f2 02b1 a248 ee07
00000030: 420e f0bb a448 e2d7 0e58 19e2 add7 4f48
00000040: 4fb9 3ecf 3301 b3f6 d40b b5a2 debd 58bc
00000050: fc50 e859 ca23 1151 9f2a 083b cfc9 d01a
00000060: b3fe 2942 e82e 5ce3 1624 606c 21de f3d5
00000070: 61a4 634d 4c5a 911f 1f06 b41e 579f b0d9
00000080: cb2d 10b6 33b4 92d0 ecc5 2d19 2eb5 182e
00000090: 2f18 cea0 d807 eaf2 f4cf 371a 3a6e 3ceb
000000a0: c9aa 3b98 5bb7 2219 dcf4 adb4 64bb d574
000000b0: 1801 6fd3 4839 d122 44d0 a692 7adc e9f9
000000c0: 3b5c 37e9 5227 4052 530a 4395 106e 9922
000000d0: c6fb 2c4b ed43 9ef4 b8c9 f1c6 4479 abfd
000000e0: edf8 c230 1b8f 6808 fec8 1adf 92bc 9f7c
000000f0: 42a2 61c8 294d acfe 33db 07fd 1c48 a1c4
-19 -96 77 -59 -79 -56 99 -91
90 21 76 53 57 -39 -49 -45
-25 24 67 -101 -85 79 42 -15
41 -102 42 96 48 69 32 34
-46 76 73 -14 8 6 87 -63
37 -14 2 -79 -94 72 -18 7
66 14 -16 -69 -92 72 -30 -41
14 88 25 -30 -83 -41 79 72
79 -71 62 -49 51 1 -77 -10
-44 11 -75 -94 -34 -67 88 -68
-4 80 -24 89 -54 35 17 81
-97 42 8 59 -49 -55 -48 26
-77 -2 41 66 -24 46 92 -29
22 36 96 108 33 -34 -13 -43
97 -92 99 77 76 90 -111 31
31 6 -76 30 87 -97 -80 -39
-53 45 16 -74 51 -76 -110 -48
-20 -59 45 25 46 -75 24 46
47 24 -50 -96 -40 7 -22 -14
-12 -49 55 26 58 110 60 -21
-55 -86 59 -104 91 -73 34 25
-36 -12 -83 -76 100 -69 -43 116
24 1 111 -45 72 57 -47 34
68 -48 -90 -110 122 -36 -23 -7
59 92 55 -23 82 39 64 82
83 10 67 -107 16 110 -103 34
-58 -5 44 75 -19 67 -98 -12
-72 -55 -15 -58 68 121 -85 -3
-19 -8 -62 48 27 -113 104 8
-2 -56 26 -33 -110 -68 -97 124
66 -94 97 -56 41 77 -84 -2
51 -37 7 -3 28 72 -95 -60

sequential/conv2d_3/Conv2D i1 [64, 3, 3, 48]
00000000: 27c0 a0ce 1d38 4da8 f44b 4b15 6ccd 5099
00000010: 25d7 c0b5 3ff2 fb72 85a2 5011 4de4 4ff6
00000020: 1ba5 eee0 3553 fa08 771d a016 c1d1 d9fe
00000030: cfa4 a3e1 f708 bee1 158a 1402 0235 ed21
00000040: 66e2 f31d 3302 6015 9dab 171e 6cdb 572d
00000050: bc0d 5ee0 6773 d529 306a f4d5 6823 f0e2
00000060: 2ed9 d6aa dfdd 7635 ac4d a714 0119 f773
00000070: bf05 b356 5a0b 7b79 59c1 a446 3494 5325
00000080: ecae 083b 66f1 ee15 b10d 2b0c 1075 16ee
00000090: 9cb3 2f3d 2f26 2b66 62b5 6e00 4bda 94f5
000000a0: f72f 1e0b 4ae5 528a da27 65f9 4b08 ecf3
000000b0: eb3c 961c e925 a1b6 c33b 8e2f e5a0 b9af
000000c0: e434 9dcf d3bb e402 06b0 0ffc ab35 031d
000000d0: a19e d17b b195 dc8c 185d 1797 3429 f5ee
000000e0: d2d9 bd4e 3fdc c604 b460 37c8 6725 bfc8
000000f0: fed2 aad4 4a08 2e46 ea7f 59a7 12ba 4bef
39 -64 -96 -50 29 56 77 -88
-12 75 75 21 108 -51 80 -103
37 -41 -64 -75 63 -14 -5 114
-123 -94 80 17 77 -28 79 -10
27 -91 -18 -32 53 83 -6 8
119 29 -96 22 -63 -47 -39 -2
-49 -92 -93 -31 -9 8 -66 -31
21 -118 20 2 2 53 -19 33
102 -30 -13 29 51 2 96 21
-99 -85 23 30 108 -37 87 45
-68 13 94 -32 103 115 -43 41
48 106 -12 -43 104 35 -16 -30
46 -39 -42 -86 -33 -35 118 53
-84 77 -89 20 1 25 -9 115
-65 5 -77 86 90 11 123 121
89 -63 -92 70 52 -108 83 37
-20 -82 8 59 102 -15 -18 21
-79 13 43 12 16 117 22 -18
-100 -77 47 61 47 38 43 102
98 -75 110 0 75 -38 -108 -11
-9 47 30 11 74 -27 82 -118
-38 39 101 -7 75 8 -20 -13
-21 60 -106 28 -23 37 -95 -74
-61 59 -114 47 -27 -96 -71 -81
-28 52 -99 -49 -45 -69 -28 2
6 -80 15 -4 -85 53 3 29
-95 -98 -47 123 -79 -107 -36 -116
24 93 23 -105 52 41 -11 -18
-46 -39 -67 78 63 -36 -58 4
-76 96 55 -56 103 37 -65 -56
-2 -46 -86 -44 74 8 46 70
-22 127 89 -89 18 -70 75 -17

sequential/conv2d_2/Conv2D i1 [48, 5, 5, 36]
00000000: 761d a3c0 24a9 af4c 4f21 fc40 934f 671c
00000010: ef0e 8f5f a00c 081e ba4f 63b1 562c 1e2a
00000020: 31ab 35e7 9b9d d838 2b01 35a8 72c2 f65c
00000030: f1bd d0f9 54f6 0752 7af1 f65f 8ca1 aabe
00000040: 2823 2419 3c8e 8bcf f3ce f26f 0832 2abd
00000050: 5a95 5b28 43de c194 23dc 01e2 5961 49c0
00000060: 9ea5 d5a3 45ed 1100 b2b6 b5ce aad3 c64a
00000070: c5cf 9237 9352 ee04 9859 c6da 5c4a 7636
00000080: 210c ba21 f4dc 846a bcc6 ae01 66ef 9167
00000090: afab cc8e 6449 05eb aae8 d1ce 4490 2b42
000000a0: 1bdd b706 403c 67d3 0a45 eb96 5b1d d09b
000000b0: e950 c01e 1057 70af cd6c 5ea7 cc76 472c
000000c0: 31e0 5c9c 2a0f 2d72 9dd1 b059 0372 3356
000000d0: a629 0fba 9c23 d02b 98af 66c1 2ece ccb9
000000e0: 4013 d3d4 32ce 1908 3225 fedc 1900 34a4
000000f0: 8a46 4090 5123 0a40 d41b 8fbd d71c 4920
118 29 -93 -64 36 -87 -81 76
79 33 -4 64 -109 79 103 28
-17 14 -113 95 -96 12 8 30
-70 79 99 -79 86 44 30 42
49 -85 53 -25 -101 -99 -40 56
43 1 53 -88 114 -62 -10 92
-15 -67 -48 -7 84 -10 7 82
122 -15 -10 95 -116 -95 -86 -66
40 35 36 25 60 -114 -117 -49
-13 -50 -14 111 8 50 42 -67
90 -107 91 40 67 -34 -63 -108
35 -36 1 -30 89 97 73 -64
-98 -91 -43 -93 69 -19 17 0
-78 -74 -75 -50 -86 -45 -58 74
-59 -49 -110 55 -109 82 -18 4
-104 89 -58 -38 92 74 118 54
33 12 -70 33 -12 -36 -124 106
-68 -58 -82 1 102 -17 -111 103
-81 -85 -52 -114 100 73 5 -21
-86 -24 -47 -50 68 -112 43 66
27 -35 -73 6 64 60 103 -45
10 69 -21 -106 91 29 -48 -101
-23 80 -64 30 16 87 112 -81
-51 108 94 -89 -52 118 71 44
49 -32 92 -100 42 15 45 114
-99 -47 -80 89 3 114 51 86
-90 41 15 -70 -100 35 -48 43
-104 -81 102 -63 46 -50 -52 -71
64 19 -45 -44 50 -50 25 8
50 37 -2 -36 25 0 52 -92
-118 70 64 -112 81 35 10 64
-44 27 -113 -67 -41 28 73 32

sequential/conv2d_1/Conv2D i1 [36, 5, 5, 24]
00000000: e306 ca41 0747 15ad 55e3 2bd9 a858 f006
00000010: d73d 18c0 ec36 1bcd 9507 bcd0 dfb2 1c31
00000020: fb0a c6cb d924 d8cd 36f9 7326 54da 30e8
00000030: a419 5cd3 f34c eeae f5c4 3eaf 0fdf eff9
00000040: bde0 1009 cd58 f598 1352 6ee5 1bbe f7a4
00000050: 42cd b82c e3af bdbc ddd4 5948 58ba b5fb
00000060: f33e 143f 52b6 e993 0c41 f9c9 06a5 4df0
00000070: fd51 1bcf c7cc b69d 10b5 2b65 9c62 dbe6
00000080: 69f8 b8be 1ace 30d6 20fe 1c32 6085 3855
00000090: f6b9 cea5 bb30 25d2 daed 4cf9 fd1e dfd9
000000a0: 13c6 0041 68d7 5508 ed9d d6e6 023d 4ced
000000b0: 62ee 2b3b bab5 0fb2 1ed4 c9ef d781 0106
000000c0: bfb6 26b0 89e1 2455 189a b633 1f46 32ab
000000d0: d899 b255 18e4 11f5 365b 5024 1142 50df
000000e0: 6bb4 414a c122 b95b 2610 08bf b5d8 ca44
000000f0: 9812 1ab4 d40b 52d2 edd4 4431 e8d5 e02f
-29 6 -54 65 7 71 21 -83
85 -29 43 -39 -88 88 -16 6
-41 61 24 -64 -20 54 27 -51
-107 7 -68 -48 -33 -78 28 49
-5 10 -58 -53 -39 36 -40 -51
54 -7 115 38 84 -38 48 -24
-92 25 92 -45 -13 76 -18 -82
-11 -60 62 -81 15 -33 -17 -7
-67 -32 16 9 -51 88 -11 -104
19 82 110 -27 27 -66 -9 -92
66 -51 -72 44 -29 -81 -67 -68
-35 -44 89 72 88 -70 -75 -5
-13 62 20 63 82 -74 -23 -109
12 65 -7 -55 6 -91 77 -16
-3 81 27 -49 -57 -52 -74 -99
16 -75 43 101 -100 98 -37 -26
105 -8 -72 -66 26 -50 48 -42
32 -2 28 50 96 -123 56 85
-10 -71 -50 -91 -69 48 37 -46
-38 -19 76 -7 -3 30 -33 -39
19 -58 0 65 104 -41 85 8
-19 -99 -42 -26 2 61 76 -19
98 -18 43 59 -70 -75 15 -78
30 -44 -55 -17 -41 -127 1 6
-65 -74 38 -80 -119 -31 36 85
24 -102 -74 51 31 70 50 -85
-40 -103 -78 85 24 -28 17 -11
54 91 80 36 17 66 80 -33
107 -76 65 74 -63 34 -71 91
38 16 8 -65 -75 -40 -54 68
-104 18 26 -76 -44 11 82 -46
-19 -44 68 49 -24 -43 -32 47

sequential/conv2d/Conv2D i1 [24, 5, 5, 3]
00000000: 59ae a800 cc0b d8ac 161c 8554 c406 7a45
00000010: b7f1 eda5 7c59 0ab1 51bc dc33 9828 7326
00000020: 4b9d b36a bb9d d875 e137 b523 6e02 9abb
00000030: 7ff2 fdee 927e 74dc 2013 beff aae3 3d64
00000040: e4b8 261b 6166 ecf3 c2b8 3091 fd08 4fed
00000050: 89f0 c11f f7ea c96f d099 83ed ff3e eb28
00000060: 86e3 f702 79e1 0791 3b78 892f 2dc8 b4fd
00000070: f9f0 a321 22bb 6a90 730e d691 e065 9173
00000080: cd62 b127 d515 ddb3 8149 b5c1 a9f6 9809
00000090: 17b7 dac3 9a72 b673 0eaf bbae dd47 ae38
000000a0: 4ff3 b8b4 4e47 6950 437a c0bd 5249 8106
000000b0: 4d95 1a99 efcd 2d96 c111 9259 b99f a5c7
000000c0: 3aea 5c31 d363 14f9 d1dc c5d0 b2bb c2b3
000000d0: af2e 4a12 6129 d029 4fcf 699a c16c 2479
000000e0: 28e8 cc67 d1b9 da96 6fff 3f9d bcce bdbb
000000f0: e431 7987 9f4f 8f1d 7687 4c00 aff5 0c26
89 -82 -88 0 -52 11 -40 -84
22 28 -123 84 -60 6 122 69
-73 -15 -19 -91 124 89 10 -79
81 -68 -36 51 -104 40 115 38
75 -99 -77 106 -69 -99 -40 117
-31 55 -75 35 110 2 -102 -69
127 -14 -3 -18 -110 126 116 -36
32 19 -66 -1 -86 -29 61 100
-28 -72 38 27 97 102 -20 -13
-62 -72 48 -111 -3 8 79 -19
-119 -16 -63 31 -9 -22 -55 111
-48 -103 -125 -19 -1 62 -21 40
-122 -29 -9 2 121 -31 7 -111
59 120 -119 47 45 -56 -76 -3
-7 -16 -93 33 34 -69 106 -112
115 14 -42 -111 -32 101 -111 115
-51 98 -79 39 -43 21 -35 -77
-127 73 -75 -63 -87 -10 -104 9
23 -73 -38 -61 -102 114 -74 115
14 -81 -69 -82 -35 71 -82 56
79 -13 -72 -76 78 71 105 80
67 122 -64 -67 82 73 -127 6
77 -107 26 -103 -17 -51 45 -106
-63 17 -110 89 -71 -97 -91 -57
58 -22 92 49 -45 99 20 -7
-47 -36 -59 -48 -78 -69 -62 -77
-81 46 74 18 97 41 -48 41
79 -49 105 -102 -63 108 36 121
40 -24 -52 103 -47 -71 -38 -106
111 -1 63 -99 -68 -50 -67 -69
-28 49 121 -121 -97 79 -113 29
118 -121 76 0 -81 -11 12 38
